…
rops":173,"children":174},{"style":129},[175],{"type":30,"value":176},"summary",{"type":25,"tag":62,"props":178,"children":179},{"style":75},[180],{"type":30,"value":181},"()\n",{"type":25,"tag":52,"props":183,"children":186},{"code":184,"language":30,"meta":7,"className":185,"style":7},"┏━━━━━━━━━━━━━━━━━━━━━━━━━━━━━━━━━━━━━━┳━━━━━━━━━━━━━━━━━━━━━━━━━━━━━┳━━━━━━━━━━━━━━━━━┓\n┃ Layer (type)                         ┃ Output Shape                ┃         Param # ┃\n┡━━━━━━━━━━━━━━━━━━━━━━━━━━━━━━━━━━━━━━╇━━━━━━━━━━━━━━━━━━━━━━━━━━━━━╇━━━━━━━━━━━━━━━━━┩\n│ conv2d (Conv2D)                      │ (None, 90, 122, 64)         │           3,200 │\n├──────────────────────────────────────┼─────────────────────────────┼─────────────────┤\n│ max_pooling2d (MaxPooling2D)         │ (None, 45, 61, 64)          │               0 │\n├──────────────────────────────────────┼─────────────────────────────┼─────────────────┤\n│ conv2d_1 (Conv2D)                    │ (None, 41, 57, 64)          │         102,464 │\n├──────────────────────────────────────┼─────────────────────────────┼─────────────────┤\n│ max_pooling2d_1 (MaxPooling2D)       │ (None, 20, 28, 64)          │               0 │\n├──────────────────────────────────────┼─────────────────────────────┼─────────────────┤\n│ conv2d_2 (Conv2D)                    │ (None, 18, 26, 128)         │          73,856 │\n├──────────────────────────────────────┼─────────────────────────────┼─────────────────┤\n│ max_pooling2d_2 (MaxPooling2D)       │ (None, 9, 13, 128)          │               0 │\n├──────────────────────────────────────┼─────────────────────────────┼─────────────────┤\n│ conv2d_3 (Conv2D)                    │ (None, 7, 11, 256)          │         295,168 │\n├──────────────────────────────────────┼─────────────────────────────┼─────────────────┤\n│ flatten (Flatten)                    │ (None, 19712)               │               0 │\n├──────────────────────────────────────┼─────────────────────────────┼─────────────────┤\n│ dense (Dense)                        │ (None, 512)                 │      10,093,056 │\n├──────────────────────────────────────┼─────────────────────────────┼─────────────────┤\n│ dense_1 (Dense)                      │ (None, 1)                   │             513 │\n└──────────────────────────────────────┴─────────────────────────────┴─────────────────┘\n\n Total params: 10,568,259 (40.31 MB)\n\n Trainable params: 10,568,257 (40.31 MB)\n\n Non-trainable params: 0 (0.00 B)\n\n Optimizer params: 2 (12.00 B)\n","language-text shiki shiki-themes one-light one-dark-pro monokai",[187],{"type":25,"tag":33,"props":188,"children":189},{"__ignoreMap":7},[190,198,20
…
